model.pth (torch, 99311 bytes, 10 tensors)

conv1.weight f4 [12, 1, 5, 5]
-0.22727299 0.0005031985 0.10409005 -0.009972453 -0.09717055 -0.20911106 0.10826385 -0.14104019
-0.17550741 -0.14918342 0.23315747 -0.066831306 0.03468839 0.18017814 -0.20862754 -0.063720025
0.07421518 -0.069900334 0.17120264 0.052501902 0.18889815 -0.10113569 -0.10930723 0.21946037
0.05056124 0.16716717 0.26986992 0.14219733 0.046165284 -0.09015256 0.20822479 0.20078088
0.14512527 0.13068594 0.2168783 0.036514997 0.25362107 0.15908438 0.110979855 -0.008341721
-0.0824104 -0.035674296 -0.12991309 -0.116933525 0.006144431 -0.08292129 0.010243423 0.011050195
0.17209478 0.015023085 0.19141416 0.13569906 0.07956545 -0.08194391 -0.002538244 0.15647224
0.19171736 0.08923033 0.09450214 -0.035279192 -0.11673486 -0.09151557 0.21649545 -0.049126655
-0.11489481 -0.18669161 -0.14006385 0.112797864 -0.17262517 -0.23883635 -0.051969998 -0.06416793
0.14570957 -0.13426264 -0.09204178 0.20603311 0.03570973 0.28291515 -0.019517835 0.024124544
0.13152276 0.12092407 0.24323317 0.27308664 0.2521681 -0.048247825 0.110714436 0.21109614
-0.048803285 0.0834219 0.2125391 0.19741938 0.20085055 0.17691515 -0.08336531 0.07238995
-0.06808576 0.019853884 0.15974258 0.21895787 0.14745817 -0.021242362 0.043149475 -0.031290572
-0.10083335 0.07484602 -0.11921651 0.07767399 -0.14735307 0.1453273 -0.17213559 0.058873475
-0.02942857 0.1609556 -0.014513796 -0.10579984 0.17197555 0.0694507 0.13145351 -0.20396647
0.13940226 -0.0035167662 0.055930324 -0.0012392408 0.19803716 -0.107453525 0.20011333 -0.21616898
-0.18878932 0.036104392 0.18199088 -0.1500991 -0.0822855 -0.06418692 0.021373393 0.23919551
-0.19419056 -0.18531042 -0.12361919 -0.15684731 -0.1734611 0.14457062 -0.11104666 0.15111719
0.0796207 -0.07764237 0.25616273 -0.120899856 0.048173316 0.10232376 -0.054715067 0.1417624
0.17232624 0.16875166 -0.03406322 0.07177336 0.1631066 -0.0123804 0.20995474 -0.0067523536
0.17414092 -0.1723274 -0.13915427 -0.07533247 -0.120979324 0.20650811 0.016939247 -0.011677306
0.03548956 0.13830054 -0.0136424 -0.029091883 0.0258193 -0.1660772 -0.02021676 0.15757169
0.2086703 0.04000004 -0.0012892304 0.21960892 -0.010029126 -0.051959176 -0.114017606 0.098431125
0.15776385 0.094266355 -0.13267574 0.052158773 -0.065485545 0.03045628 -0.22130796 -0.18376066
-0.077390306 -0.11785406 -0.13477369 0.19719937 -0.17813061 0.062094398 -0.06472289 -0.21654147
0.1829605 0.19438031 0.13205713 0.1424612 -0.016238688 0.14206141 0.2015553 0.084053345
-0.080095686 -0.056698967 0.2032625 0.08681527 0.1239206 0.1568735 0.14468744 0.17765686
0.10336406 0.13670915 -0.045200642 -0.029151745 0.2392389 0.22681153 0.17874259 0.11143678
0.10269436 -0.06889655 0.25952977 0.12049319 0.26547527 -0.08333363 0.055257503 0.19650501
0.19085456 0.16451086 0.10316083 0.0075533683 0.27240887 0.18219613 0.024002898 0.1342678
0.009261057 0.030267509 0.059174735 0.19411807 0.16133945 -0.10593563 0.16815475 0.12174321
-0.052970104 0.12534215 0.2131113 -0.15554725 0.042789236 -0.031222137 0.0085992 0.117892705
00000000: 40ba 68be 14e9 033a 2a2d d53d 8063 23bc
00000010: 5a01 c7bd 3621 56be 70b9 dd3d d76c 10be
00000020: 37b8 33be 8ac3 18be d5c0 6e3e dade 88bd
00000030: 6a15 0e3d 9e80 383e 75a2 55be a57f 82bd
00000040: 21fe 973d e827 8fbd bf4f 2f3e 3c0c 573d
00000050: 846e 413e 3b20 cfbd 78dc dfbd 38ba 603e
00000060: 4e19 4f3d df2d 2b3e 642c 8a3e 2d9c 113e
00000070: cf17 3d3d e8a1 b8bd e138 553e 8199 4d3e
00000080: b89b 143e 89d2 053e 5815 5e3e c090 153d
00000090: 9fda 813e 04e7 223e 6849 e33d b7ab 08bc
000000a0: c9c6 a8bd 361f 12bd f007 05be d87a efbd
000000b0: 3957 c93b a3d2 a9bd 08d4 273c e10b 353c
000000c0: 9d39 303e 6323 763c 1302 443e b2f4 0a3e
000000d0: 36f3 a23d 35d2 a7bd ab58 26bb 423a 203e
000000e0: 8e51 443e 64be b63d 578a c13d ea80 10bd
000000f0: b012 efbd 846c bbbd fcb0 5d3e 0839 49bd
00000100: f84d ebbd 162c 3fbe e66c 0fbe 9102 e73d
00000110: a7c4 30be 8491 74be 7ede 54bd 7a6a 83bd
00000120: e434 153e 257c 09be 6780 bcbd 58fa 523e
00000130: 5e44 123d 41da 903e dee3 9fbc d6a0 c53c
00000140: e7ad 063e 0aa7 f73d 1e12 793e 03d2 8b3e
00000150: 2d1c 813e 839f 45bd 40be e23d 9629 583e
00000160: f4e5 47bd 1ad9 aa3d daa3 593e 4e28 4a3e
00000170: c4ab 4d3e 3f29 353e 6fbb aabd 2f41 943d
00000180: 8c70 8bbd 9da4 a23c 8f93 233e 7e36 603e
00000190: 46ff 163e 7604 aebc 81bd 303d 8b2a 00bd
000001a0: b781 cebd df48 993d c927 f4bd 8a13 9f3d
000001b0: b9e3 16be aed0 143e 5044 30be 5025 713d
000001c0: 2f14 f1bc 8bd1 243e 46cb 6dbc 96ad d8bd
000001d0: 5c1a 303e 2b3c 8e3d c09b 063e 96dc 50be
000001e0: 77bf 0e3e 8c79 66bb 3217 653d 056e a2ba
000001f0: 41ca 4a3e 9810 dcbd 82ea 4c3e 675b 5dbe
00000200: fd51 41be 33e2 133d d15b 3a3e 94b3 19be
00000210: 4d85 a8bd 6f74 83bd 4117 af3c abef 743e
00000220: e4d9 46be 04c2 3dbe 0f2c fdbd 959c 20be
00000230: c99f 31be 520a 143e 6e6c e3bd 77be 1a3e
00000240: 2d10 a33d f602 9fbd c327 833e 589a f7bd
00000250: 6251 453d 1f8f d13d e81c 60bd 2a2a 113e
00000260: 4a76 303e 3ccd 2c3e e085 0bbd e9fd 923d
00000270: 6b05 273e 29d7 4abc 60fe 563e d942 ddbb
00000280: ff51 323e 9876 30be 757e 0ebe e947 9abd
00000290: 02c4 f7bd dd76 533e 2dc4 8a3c 2c52 3fbc
000002a0: 805d 113d a89e 0d3e 5f84 5fbc 1a52 eebc
000002b0: ff82 d33c 2410 2abe 9e9d a5bc 795a 213e
000002c0: abad 553e 15d7 233d 65fb a8ba 29e1 603e
000002d0: 3451 24bc 25d3 54bd 1082 e9bd 4296 c93d
000002e0: d98c 213e b80e c13d 26dc 07be 70a4 553d
000002f0: 491d 86bd 737f f93c 8e9e 62be c12b 3cbe
00000300: cf7e 9ebd 785d f1bd 1d02 0abe a2ee 493e
00000310: df67 36be b256 7e3d 6f8d 84bd 0cbd 5dbe
00000320: ff59 3b3e a20b 473e fc39 073e 59e1 113e
00000330: ff06 85bc 8c78 113e 8364 4e3e 2924 ac3d
00000340: 3509 a4bd 2d3d 68bd 0b24 503e 34cc b13d
00000350: 15ca fd3d 72a3 203e f228 143e aeeb 353e
00000360: 89b0 d33d 7cfd 0b3e 4f24 39bd a4cf eebc
00000370: 0bfb 743e 4841 683e 4c08 373e f738 e43d
00000380: 6c51 d23d a219 8dbd 16e1 843e 22c5 f63d
00000390: 60ec 873e d2aa aabd b155 623d 9c38 493e
000003a0: 616f 433e 8975 283e fc45 d33d 3f82 f73b
000003b0: 2d79 8b3e 9f91 3a3e baa1 c43c 807d 093e
000003c0: b0bb 173c 91f3 f73c 3561 723d e3c6 463e
000003d0: 2b36 253e c8f4 d8bd c230 2c3e 8154 f93d
000003e0: 2ef7 58bd b159 003e d939 5a3e c747 1fbe
000003f0: c443 2f3d 91c5 ffbc a9e3 0c3c bb71 f13d

conv1.bias f4 [12]
0.14548235 0.0033014924 0.07410341 0.0006447862 -8.274881e-05 -0.028156219 -0.18259823 0.097934134
-0.00023371787 0.008002036 -0.01538452 0.014417975
00000000: 53f9 143e da5d 583b 87c3 973d df06 293a
00000010: 6e89 adb8 dfa7 e6bc 08fb 3abe b191 c83d
00000020: 2a12 75b9 f91a 033c 5b0f 7cbc 5f39 6c3c

conv2.weight f4 [16, 12, 5, 5]
0.031423457 0.036670882 -0.025112726 0.0130070085 -0.031745847 0.0054479265 0.043235555 -0.024121324
-0.04235315 -0.03741112 -0.039459478 -0.026810506 -0.017274458 0.060702264 0.007712601 0.015966274
0.052874796 0.061730172 -0.03554411 0.036303096 0.010605613 0.023284 -0.029992174 0.055485345
0.05450195 -0.10789601 0.006468806 0.035384532 -0.011152861 0.03619622 -0.040510066 -0.017170643
0.06761035 0.07719411 0.05167848 -0.06168769 -0.007356077 -0.034338918 0.09159871 0.020797808
-0.08456498 -0.02930635 0.011699611 0.07121891 0.042365756 -0.09643178 -0.001562016 -0.009946119
0.049807005 0.07531821 -0.032647476 -0.102782786 -0.007213164 0.027419556 0.05912453 -0.058374133
-0.05972046 -0.047123108 -0.030584726 -0.01615836 -0.06513877 -0.024074905 -0.060339525 0.055492416
0.06808278 0.0456407 -0.043062672 -0.04122129 0.08285529 0.058683917 0.0022740457 -0.04710031
-0.013561813 -0.0025350286 0.051887073 -0.03664184 -0.018235795 0.0018479066 0.023612764 0.09102705
-0.08249652 0.0058247806 0.01861299 0.018099753 0.04619651 -0.07005647 0.005376163 0.025470138
0.06753566 -0.002637721 -0.09476478 0.015751338 -0.021737747 0.010517339 -0.0041879127 -0.09102474
0.023585733 0.025878595 -0.033158764 -0.015208849 -0.11162645 -0.023116691 -0.016854273 5.358786e-05
-0.025855362 -0.13499218 -0.024180643 -0.01299274 -0.033586875 0.042375036 -0.035422135 -0.060506564
-0.05555752 0.019594083 0.0452208 -0.111658484 -0.041112807 -0.0074295835 -0.041922595 0.043491315
-0.01880672 -0.040501226 0.027522096 -0.035518833 0.081024736 -0.08993205 -0.20127675 -0.14257978
-0.16977003 -0.15247247 -0.07209844 -0.15375328 -0.073550895 -0.09100366 -0.078536436 -0.12616795
-0.15208788 -0.042423062 -0.07516101 0.03379775 -0.0018068482 -0.04816328 -0.10354658 -0.06752949
-0.0026254384 -0.019941697 -0.03374145 -0.040807445 -0.058582675 0.027665645 -0.031807795 -0.1255385
-0.085228905 -0.06599866 0.010270254 -0.055992458 -0.07840289 -0.096184716 -0.0009559323 -0.036519025
-0.046880115 -0.095720455 -0.06124588 0.01275182 0.036929715 -0.07749307 -0.05192209 -0.0035358302
0.020387413 0.022514062 -0.060161658 -0.04815508 -0.023071354 0.039119966 0.008564113 -0.026290594
-0.00641709 -0.00067254057 -0.046399023 0.014378177 0.008309924 -0.053129263 0.025638273 -0.005647125
0.08035629 -0.010611555 -0.029307324 0.020612963 0.049756207 0.026570147 -0.036881626 0.034282662
-0.030175598 0.032856144 0.07036195 0.033959426 0.06438456 0.01703327 0.072922885 -0.022628611
-0.076299265 -0.06768912 0.05445124 0.014319961 0.08433672 -0.10453481 -0.045812745 0.06344898
0.073341936 -0.016676012 -0.07456176 -0.04756799 0.0038453424 0.035484537 0.027000457 0.009082637
-0.061856937 -0.04280233 -0.012939976 0.066232674 -0.001065372 -0.07001271 -0.029544463 -0.010914068
0.06856467 -0.079601996 -0.04318648 0.0137608005 0.07108348 0.05974025 -0.00015128033 -0.028611131
0.080029145 0.08124504 0.03751191 -0.02576855 0.0013569406 0.033990856 0.031628564 0.010752706
-0.024233794 -0.0026997977 -0.025427215 0.039690092 -0.0072664986 -0.051589675 -0.045803342 0.060050383
0.022724535 0.048550464 -0.11066674 -0.11236249 -0.14711846 -0.0356955 -0.08116932 -0.13299845
00000000: e2b5 003d 3534 163d 34b9 cdbc 591b 553c
00000010: ef07 02bd 8584 b23b c417 313d 159a c5bc
00000020: 7f7a 2dbd 673c 19bd 43a0 21bd b5a1 dbbc
00000030: 2a83 8dbc f0a2 783d fdb9 fc3b b4cb 823c
00000040: 3e93 583d c7d8 7c3d b396 11bd 8eb2 143d
00000050: 2ac3 2d3c 16be be3c 26b2 f5bc 9a44 633d
00000060: 703d 5f3d 95f8 dcbd 47f8 d33b 5fef 103d
00000070: 7dba 36bc 7d42 143d e2ed 25bd 73a9 8cbc
00000080: 4c77 8a3d f217 9e3d d0ac 533d 3bac 7cbd
00000090: 3f0b f1bb f7a6 0cbd 1b98 bb3d 2a60 aa3c
000000a0: 6730 adbd df13 f0bc baaf 3f3c 38db 913d
000000b0: b787 2d3d 067e c5bd 8fbc ccba 0cf5 22bc
000000c0: 6e02 4c3d 6f40 9a3d 5cb9 05bd c87f d2bd
000000d0: 685c ecbb fa9e e03c 902c 723d b719 6fbd
000000e0: 719d 74bd 2904 41bd d28c fabc 895e 84bc
000000f0: 7a67 85bd bc38 c5bc 9426 77bd 044c 633d
00000100: fc6e 8b3d bef1 3a3d 7c62 30bd a8d7 28bd
00000110: 09b0 a93d 8c5e 703d 2808 153b 41ec 40bd
00000120: 5e32 5ebc b922 26bb 8a87 543d c115 16bd
00000130: 3c63 95bc 7535 f23a 8e6f c13c 646c ba3d
00000140: eff3 a8bd cddd be3b 457a 983c ef45 943c
00000150: 8d38 3d3d c479 8fbd 862a b03b c0a6 d03c
00000160: 2350 8a3d 9ddd 2cbb 0914 c2bd f308 813c
00000170: 5c13 b2bc eb50 2c3c c23a 89bb 2e6b babd
00000180: de36 c13c 59ff d33c 7cd1 07bd 892e 79bc
00000190: 699c e4bd 375f bdbc f911 8abc 87c3 6038
000001a0: a0ce d3bc 643b 0abe 7c16 c6bc 80df 54bc
000001b0: 6492 09bd 7291 2d3d cd16 11bd bbd5 77bd
000001c0: 4890 63bd c583 a03c 7239 393d 34ad e4bd
000001d0: e765 28bd dd73 f3bb 07b7 2bbd f323 323d
000001e0: 8d10 9abc 9de4 25bd 0576 e13c 327c 11bd
000001f0: 4cf0 a53d 4b2e b8bd 7e1b 4ebe 6f00 12be
00000200: 32d8 2dbe be21 1cbe 59a8 93bd 8071 1dbe
00000210: daa1 96bd 2060 babd b6d7 a0bd 2c32 01be
00000220: edbc 1bbe cec3 2dbd 04ee 99bd 826f 0a3d
00000230: c4d3 ecba dc46 45bd 3b10 d4bd e74c 8abd
00000240: 8c0f 2cbb c55c a3bc 7a34 0abd b525 27bd
00000250: 63f4 6fbd 10a3 e23c e448 02bd 2a8d 00be
00000260: 7e8c aebd 4e2a 87bd 9144 283c 5958 65bd
00000270: b291 a0bd 7efc c4bd 8897 7aba f994 15bd
00000280: 5d05 40bd 1609 c4bd f6dc 7abd 02ed 503c
00000290: 9d43 173d b0b4 9ebd 42ac 54bd 63b9 67bb
000002a0: 8103 a73c 696f b83c 126c 76bd 433e 45bd
000002b0: 2300 bdbc 423c 203d 7e50 0c3c 5f5f d7bc
000002c0: 7446 d2bb 6f4d 30ba e70c 3ebd 7292 6b3c
000002d0: 5926 083c 129e 59bd 5b07 d23c 850b b9bb
000002e0: d791 a43d 16dc 2dbc ea15 f0bc 84dc a83c
000002f0: 2acd 4b3d a3a9 d93c 3011 17bd fa6b 0c3d
00000300: d132 f7bc 2a94 063d ed19 903d 0a19 0b3d
00000310: 0ddc 833d 5b89 8b3c 9858 953d a35f b9bc
00000320: ca42 9cbd 98a0 8abd 4308 5f3d 459e 6a3c
00000330: bbb8 ac3d 5916 d6bd 25a6 3bbd 8af1 813d
00000340: 4c34 963d 229c 88bc d6b3 98bd a7d6 42bd
00000350: 2402 7c3b 3c58 113d 1030 dd3c 57cf 143c
00000360: b35d 7dbd 7f51 2fbd 3102 54bc ffa4 873d
00000370: f4a3 8bba d362 8fbd 3b07 f2bc ebd0 32bc
00000380: a26b 8c3d 5f06 a3bd 4ee4 30bd fb74 613c
00000390: 3794 913d 31b2 743d 01a1 1eb9 e461 eabc
000003a0: 52e6 a33d cd63 a63d 17a6 193d 9118 d3bc
000003b0: 5fdb b13a ff39 0b3d f48c 013d 1e2c 303c
000003c0: f385 c6bc 17ef 30bb bc4c d0bc 1492 223d
000003d0: cf1b eebb b24f 53bd 499c 3bbd 64f7 753d
000003e0: ce28 ba3c dadc 463d 3ea5 e2bd 4e1e e6bd
000003f0: 39a6 16be 7235 12bd 1a3c a6bd bf30 08be

conv2.bias f4 [16]
0.01781949 0.007066915 0.056430604 0.030008147 0.04833775 -0.029592019 -0.018073846 0.06201547
0.060184922 0.07805578 -0.03230767 -0.040448464 0.039918542 0.01801301 0.035492375 0.04414732
00000000: 2efa 913c 9491 e73b c723 673d a5d3 f53c
00000010: cefd 453d f66a f2bc 9a0f 94bc ef03 7e3d
00000020: 7784 763d b5db 9f3d 0c55 04bd 4aad 25bd
00000030: a081 233d 0590 933c 7460 113d d2d3 343d

fc1.weight f4 [32, 576]
-0.002933658 0.027786335 -0.008278264 0.044350237 -0.002659804 -0.051447935 0.00072583166 0.056405645
-0.01035121 0.009846104 0.0049595484 -0.026919646 0.07303489 0.08693571 0.02213076 0.050539445
0.012795302 0.013697491 0.06893111 0.07877841 0.064312555 0.019456755 0.035949003 0.027350536
0.07794697 0.08119295 0.018346785 0.047624175 0.007885425 0.031264246 0.04159548 0.0775801
0.039219603 0.07789635 0.0395688 -0.007323567 0.026710367 0.056340747 0.068152785 0.045687363
0.10159733 0.08955652 -0.004837056 0.016862834 -0.011181496 0.008717928 -0.026308937 -0.031557966
0.0053761546 -0.045870602 0.021822382 0.031593397 0.031261846 -0.045348234 0.08006808 0.011603756
0.0053445343 0.057299454 0.00134179 0.061249215 0.09890588 0.059149545 0.014674041 0.04741299
0.06728921 0.0624001 0.0552527 0.059837107 0.032683685 0.015531625 0.016303362 0.06915944
0.027753292 -0.020290002 -0.027195806 -0.024866754 0.015325499 0.010678376 -0.032246765 -0.008942653
0.025949305 0.020648528 -0.018506544 -0.054774586 0.0036959155 0.009510895 0.012060381 -0.014028922
-0.0005497009 0.0018633689 0.06520072 0.0009317563 0.061326377 0.041600175 0.033496834 0.0138807995
0.06088687 0.023703054 0.009201318 0.07433945 0.06021123 0.0017605633 0.055769008 0.06724813
0.011951822 0.01483844 0.039458096 0.07241199 -0.021859005 0.015080501 -0.0057014357 0.03721554
-0.011332129 0.004652873 0.017074965 0.040319633 -0.0025647196 -0.01671272 -0.007853928 -0.023519205
0.028646044 0.0436109 -0.007027497 -0.0031104481 0.026358958 -0.0021063047 0.008816574 0.074787155
0.02927971 0.034680735 0.06853478 0.04892263 0.0020113706 0.032162033 0.022343604 0.03820831
0.015545527 0.049777213 0.004302178 0.034515366 0.035573207 0.060500674 0.01888548 -0.014553627
-0.039661527 -0.007953591 0.008000865 0.0140497135 -0.0017113017 0.022680584 0.048489414 0.041871246
0.042978052 0.04782511 0.06160049 0.053001344 0.062456384 0.071412064 0.08193058 0.05620823
0.05941965 0.0017579622 0.057200357 0.06042375 0.07466257 0.08689464 0.057110477 0.060385652
0.08256541 0.055452432 0.09040677 0.08789086 0.051942367 0.01970346 0.0804226 0.0015089987
0.06608933 0.000554085 0.033963244 0.058533933 -0.009553984 -0.0059111835 -0.057992887 0.00793183
-0.05784357 -0.020384077 0.021200577 -0.032737475 0.031255487 0.017150449 0.03836699 0.02356189
0.04268057 0.06829464 0.052600745 0.0492077 0.022352653 0.061480366 0.052128874 0.018713387
0.05875482 0.005761482 -0.004015088 0.031337887 0.022193583 0.016129935 0.037530575 0.028070811
0.006590388 0.0508565 0.043817446 -0.0071792556 0.009021679 0.012643799 0.037931636 0.040453453
-0.037612807 -0.042748004 -0.04357735 -0.052848738 -0.028152306 -0.06166128 -0.02255455 0.013700708
-0.018074043 -0.012894133 -0.016710691 -0.042221203 -0.0073173163 0.033818543 0.0721304 0.0055845985
-0.01724759 0.055168997 -0.004008165 0.005870206 0.06552974 0.009352904 0.0014852725 0.028318238
0.006479401 0.001567833 0.044613108 0.05822682 0.05658186 0.024967708 -0.022566495 -0.014957011
0.00027807645 0.009443049 0.0758327 0.06485752 0.0014973957 0.053792015 0.066338025 0.06564381
00000000: 9d42 40bb 2ba0 e33c 8ea1 07bc 98a8 353d
00000010: 1b50 2ebb 12bb 52bd bd45 3e3a 9b09 673d
00000020: 1f98 29bc 8e51 213c b583 a23b 9786 dcbc
00000030: 5193 953d 590b b23d 914b b53c 7302 4f3d
00000040: 63a3 513c 716b 603c c12b 8d3d 9356 a13d
00000050: 4db6 833d c663 9f3c 433f 133d 3b0e e03c
00000060: a9a2 9f3d 7d48 a63d ff4b 963c 9111 433d
00000070: df31 013c f00e 003d 0660 2a3d 51e2 9e3d
00000080: bca4 203d 1f88 9f3d e512 223d 88fa efbb
00000090: b3cf da3c 8ec5 663d b093 8b3d ac22 3b3d
000000a0: 4312 d03d 6969 b73d 2b80 9ebb ed23 8a3c
000000b0: 9832 37bc a4d5 0e3c d785 d7bc ed42 01bd
000000c0: 742a b03b d0e2 3bbd dac4 b23c 1468 013d
000000d0: 6c0c 003d 12bf 39bd bcfa a33d ae1d 3e3c
000000e0: 3421 af3b d5b2 6a3d 00df af3a 75e0 7a3d
000000f0: 2a8f ca3d cb46 723d 646b 703c 2034 423d
00000100: edce 893d 3f97 7f3d a850 623d c117 753d
00000110: 54df 053d 5b78 7e3c a18e 853c 77a3 8d3d
00000120: df5a e33c 3837 a6bc bdc9 debc 5db5 cbbc
00000130: cd17 7b3c 5bf4 2e3c 2f15 04bd 3584 12bc
00000140: a393 d43c 1a27 a93c 099b 97bc 515b 60bd
00000150: 2c37 723b 96d3 1b3c e798 453c 90d9 65bc
00000160: ce19 10ba 493c f43a f587 853d 1b41 743a
00000170: 5e31 7b3d f264 2a3d fa33 093d 4b6c 633c
00000180: 8364 793d e82c c23c 20c1 163c 483f 983d
00000190: 0da0 763d b4c2 e63a 0b6e 643d 63b9 893d
000001a0: 93d1 433c ee1c 733c d09e 213d bd4c 943d
000001b0: a811 b3bc 3514 773c 1cd3 babb 526f 183d
000001c0: 65aa 39bc 2177 983b cce0 8b3c 3326 253d
000001d0: db14 28bb 1de9 88bc c3ad 00bc 59ab c0bc
000001e0: 1cab ea3c 58a1 323d eb46 e6bb a9d8 4bbb
000001f0: beee d73c ee09 0abb 6473 103c 022a 993d
00000200: 01dc ef3c 630d 0e3d f65b 8c3d 1863 483d
00000210: 33d1 033b 56bc 033d ef09 b73c 5180 1c3d
00000220: abb2 7e3c 31e3 4b3d 49f9 8c3b fc5f 0d3d
00000230: 36b5 113d 8ecf 773d b9b5 9a3c 5672 6ebc
00000240: 2074 22bd c74f 02bc 0f16 033c c530 663c
00000250: c24d e0ba a2cc b93c d69c 463d 2f81 2b3d
00000260: c109 303d 43e4 433d cc50 7c3d f017 593d
00000270: 44d2 7f3d 7d40 923d 38cb a73d 9a3a 663d
00000280: 0562 733d 6c6b e63a ec4a 6a3d e57e 773d
00000290: b1e8 983d d1f5 b13d adec 693d f256 773d
000002a0: 0e18 a93d 1722 633d 2f27 b93d 2000 b43d
000002b0: 85c1 543d 2769 a13c 9bb4 a43d 98c9 c53a
000002c0: d859 873d 0440 113a 0b1d 0b3d 47c1 6f3d
000002d0: 5088 1cbc 9ab2 c1bb f389 6dbd 82f4 013c
000002e0: 61ed 6cbd 82fc a6bc d5ac ad3c bb17 06bd
000002f0: c105 003d 197f 8c3c b426 1d3d dd04 c13c
00000300: d2d1 2e3d 0fde 8b3d e173 573d 038e 493d
00000310: e91c b73c d6d2 7b3d 1685 553d d14c 993c
00000320: e5a8 703d d0ca bc3b 0091 83bb 285c 003d
00000330: 51cf b53c ed22 843c a9b9 193d c2f4 e53c
00000340: 2ef4 d73b e84e 503d ec79 333d f63f ebbb
00000350: aacf 133c f027 4f3c 345e 1b3d 85b2 253d
00000360: e30f 1abd 8818 2fbd 2a7e 32bd eb77 58bd
00000370: aa9f e6bc 8a90 7cbd 52c4 b8bc ef78 603c
00000380: 0410 94bc ea41 53bc dce4 88bc 24f0 2cbd
00000390: 19c6 efbb 5085 0a3d 1ab9 933d 02ff b63b
000003a0: d14a 8dbc e3f8 613d ed56 83bb db5a c03b
000003b0: 7534 863d ec3c 193c 7aad c23a a6fb e73c
000003c0: 2851 d43b bf7f cd3a 3cbc 363d 3f7f 6e3d
000003d0: 61c2 673d 1489 cc3c 5fdd b8bc 400e 75bc
000003e0: caca 9139 05b7 1a3c 2d4e 9b3d 05d4 843d
000003f0: 4344 c43a 0455 5c3d 3bdc 873d 4370 863d

fc1.bias f4 [32]
0.005200268 -0.023181979 0.00941812 0.02640967 -0.026803434 0.04716076 -0.030814392 0.02250979
-0.04568509 -0.0034963167 -0.009974147 0.020629974 0.06250984 -0.01800914 -0.027176082 0.021611048
0.041265905 -0.031574402 -0.016400497 0.03485858 0.047481336 0.024369963 -0.016799117 -0.02309199
-0.042558506 -0.009954147 0.008272248 -0.004368205 0.035418104 -0.009315035 0.024527822 0.045169648
00000000: 0267 aa3b 22e8 bdbc 754e 1a3c 1859 d83c
00000010: e092 dbbc a42b 413d 776e fcbc 7366 b83c
00000020: 4a20 3bbd 7622 65bb 9b6a 23bc 3100 a93c
00000030: 2905 803d e787 93bc 60a0 debc a709 b13c
00000040: 7006 293d 2954 01bd 565a 86bc dfc7 0e3d
00000050: ca7b 423d 84a3 c73c 4d9e 89bc 6a2b bdbc
00000060: d451 2ebd b816 23bc 5388 073c 2923 8fbb
00000070: 9312 113d 179e 18bc 92ee c83c cf03 393d

fc2.weight f4 [16, 32]
0.11722426 0.058856234 -0.19862981 0.05570264 0.088689536 -0.096658446 0.02314841 -0.009048483
0.15385683 0.016801232 0.09335878 0.1480852 0.03589083 -0.10588346 0.11025418 0.0039329487
0.09589751 0.15504003 0.12850088 0.22644675 0.19825792 -0.13048214 -0.21639997 -0.16346408
-0.031391565 0.22169241 0.121928565 0.08618075 -0.085326456 -0.24893449 0.1134357 0.21645893
0.16426928 -0.024604976 0.22262956 -0.1675861 -0.18152244 0.23269843 -0.08563651 -0.028164625
-0.026103226 -0.08491221 0.14262375 -0.1371951 -0.22568044 0.17322288 0.077956274 0.04749123
-0.1857788 -0.06879145 0.0011366053 -0.18929486 -0.123771556 0.15085775 0.17242618 0.14531703
0.14936318 -0.049622033 0.0029471507 0.08754354 0.043834858 0.07616965 0.12962972 -0.061410945
-0.13796797 -0.026681768 -0.056220546 0.26524478 0.105680965 -0.012173497 0.009837837 -0.12106569
0.15918465 0.044743404 0.1325084 0.22292952 0.2574767 -0.0025388785 0.024480104 0.15105912
0.19183476 0.22751345 0.12477172 -0.059297252 -0.053889785 0.06485415 0.00036223297 -0.1748298
-0.032428883 0.119453706 0.15504345 0.07235146 -0.086775616 -0.0201046 0.20221993 -0.041742463
-0.076593354 -0.03986449 0.11514188 0.3023274 0.023192523 -0.035212766 -0.084541105 0.018858716
0.051920507 0.1605638 0.06751563 0.19727398 0.22794965 -0.1369863 -0.14338617 -0.15163396
0.1538002 0.21150792 -0.14601563 0.024471065 0.21334656 -0.034326293 -0.091648415 -0.003267079
0.15391484 0.030618057 -0.1129006 0.16762836 0.12559988 -0.22217776 -0.008444541 0.08590719
0.123323694 0.13314514 -0.13481097 0.011693625 0.19668625 -0.00941206 0.21672842 0.028205255
-0.07364469 -0.03642215 -0.03052132 0.06276856 0.08772855 -0.1627788 0.09275888 -0.10047285
0.15719023 -0.06104122 0.018571196 -0.08934642 -0.029594617 -0.10519272 -0.31543595 0.11521107
-0.15666378 0.16963965 -0.057587877 0.20949541 0.06267414 -0.14585453 -0.00556525 0.060729533
-0.017194958 0.017732829 0.14784893 -0.17878933 -0.17105716 0.071123056 -0.20157294 -0.14685678
0.13909532 -0.034342717 -0.0689453 -0.15632293 -0.05150011 -0.039112274 0.105566755 -0.1154636
-0.13857906 0.11071276 0.10010412 -0.13188294 0.05957745 0.108022325 0.20817502 0.20093001
-0.0023287237 0.004954313 0.12069252 -0.13886157 0.17225169 0.19844285 -0.062065873 0.025328824
0.13434409 0.08061228 0.15076283 -0.18966098 0.08473678 0.17081812 0.11518229 -0.14556152
-0.17048603 -0.065102145 0.05425856 0.00010884276 -0.039505586 -0.13170953 0.1487404 -0.09442323
-0.024282606 -0.11278035 0.0780917 -0.22522153 -0.07059667 0.028389208 0.09845383 0.019842518
-0.15529461 0.077212065 -0.0060699717 -0.08726164 0.024206588 0.18122973 -0.17039536 0.03087526
0.098193884 -0.06982782 0.10168111 0.1363421 0.1265627 -0.051669948 -0.014984044 0.06531054
0.13077348 0.0972758 0.020175755 0.18609835 0.19873142 -0.044036694 -0.028861359 -0.06329611
0.106790505 0.20394754 -0.058030408 0.09947368 0.196575 -0.0389935 -0.30983016 -0.14624989
-0.12673372 0.09051019 -0.0923406 0.065278016 0.12682912 -0.13620304 -0.05956305 0.055817865
00000000: 4613 f03d 3c13 713d 9d65 4bbe 7428 643d
00000010: dca2 b53d ddf4 c5bd bca1 bd3c 1740 14bc
00000020: a58c 1d3e bda2 893c e332 bf3d a6a3 173e
00000030: 4302 133d 6dd9 d8bd f2cc e13d f7df 803b
00000040: ea65 c43d d0c2 1e3e bc95 033e a8e1 673e
00000050: 2004 4b3e 1c9d 05be f497 5dbe 2163 27be
00000060: 7194 00bd 5603 633e afb5 f93d 887f b03d
00000070: a3bf aebd afe8 7ebe fa50 e83d 69a7 5d3e
00000080: 3536 283e 6090 c9bc 01f9 633e b19b 2bbe
00000090: 05e1 39be 7f48 6e3e 3262 afbd 80b9 e6bc
000000a0: 6fd6 d5bc 74e6 adbd f60b 123e df7c 0cbe
000000b0: c618 67be 5761 313e 8aa7 9f3d 2a86 423d
000000c0: cc3c 3ebe 88e2 8cbd 25fa 943a 83d6 41be
000000d0: f17b fdbd 747a 1a3e 7d90 303e fdcd 143e
000000e0: a9f2 183e 7940 4bbd fc24 413b 074a b33d
000000f0: 2e8c 333d d5fe 9b3d a7bd 043e 0b8a 7bbd
00000100: 7a47 0dbe b993 dabc 8447 66bd 2ace 873e
00000110: 436f d83d 5973 47bc e12e 213c 4af1 f7bd
00000120: 4d01 233e dc44 373d 48b0 073e a347 643e
00000130: fcd3 833e 5063 26bb 808a c83c 3eaf 1a3e
00000140: 5570 443e 49f9 683e 5188 ff3d ade1 72bd
00000150: 89bb 5cbd 41d2 843d 16ea bd39 9506 33be
00000160: 26d4 04bd 25a4 f43d b6c3 1e3e 012d 943d
00000170: 6ab7 b1bd 67b2 a4bc be12 4f3e 25fa 2abd
00000180: fadc 9cbd f348 23bd 82cf eb3d a8ca 9a3e
00000190: 3ffe bd3c 433b 10bd e323 adbd 987d 9a3c
000001a0: 99aa 543d d66a 243e a245 8a3d 3102 4a3e
000001b0: a26b 693e 2346 0cbe d3d3 12be ef45 1bbe
000001c0: cd7d 1d3e 8895 583e 1f85 15be 8b77 c83c
000001d0: 8577 5a3e ba99 0cbd 2ab2 bbbd 7d1c 56bb
000001e0: da9b 1d3e b8d2 fa3c 6e38 e7bd c5a6 2b3e
000001f0: 419d 003e 9182 63be f95a 0abc 1cf0 af3d
00000200: 2291 fc3d 3357 083e e30b 0abe 9e96 3f3c
00000210: 1f68 493e 0a35 1abc 0eee 5d3e b50e e73c
00000220: 07d3 96bd 642f 15bd d907 fabc ce8c 803d
00000230: 07ab b33d 7caf 26be 5ef8 bd3d b6c4 cdbd
00000240: 7af6 203e 5c06 7abd 9f22 983c 41fb b6bd
00000250: 6970 f2bc 486f d7bd d280 a1be c8f3 eb3d
00000260: 786c 20be 04b6 2d3e 44e1 6bbd f785 563e
00000270: 4d5b 803d e45a 15be b35c b6bb 88bf 783d
00000280: 71dc 8cbc 7044 913c b665 173e 8d14 37be
00000290: 9c29 2fbe f7a8 913d 2369 4ebe a061 16be
000002a0: 016f 0e3e f3aa 0cbd 3233 8dbd 1e13 20be
000002b0: c8f1 52bd 3134 20bd 6233 d83d 2e78 ecbd
000002c0: abe7 0dbe 5fbd e23d 6403 cd3d 520c 07be
000002d0: 7c07 743d cf3a dd3d d52b 553e 99c0 4d3e
000002e0: 809d 18bb ca57 a23b a42d f73d ba31 0ebe
000002f0: bf62 303e 9a34 4b3e c938 7ebd 657e cf3c
00000300: 7f91 093e 0d18 a53d 9261 1a3e 7d36 42be
00000310: 7a8a ad3d f2ea 2e3e b1e4 eb3d 140e 15be
00000320: e493 2ebe 4654 85bd 393e 5e3d 8342 e438
00000330: 9cd0 21bd ddde 06be 674f 183e f760 c1bd
00000340: 51ec c6bc 62f9 e6bd 8bee 9f3d 79a0 66be
00000350: fd94 90bd 7c90 e83c 29a2 c93d c78c a23c
00000360: 8d05 1fbe 5c21 9e3d 9de6 c6bb 3bb6 b2bd
00000370: e54c c63c 4994 393e 1f7c 2ebe 1dee fc3c
00000380: e019 c93d e301 8fbd 303e d03d 439d 0b3e
00000390: a799 013e dea3 53bd a37f 75bc 88c1 853d
000003a0: 7ce9 053e 8938 c73d a047 a53c 9190 3e3e
000003b0: 4080 4b3e d25f 34bd a86e ecbc 64a1 81bd
000003c0: fbb4 da3d a0d7 503e 4bb1 6dbd dbb8 cb3d
000003d0: f54a 493e a6b7 1fbd 0fa2 9ebe 88c2 15be
000003e0: 7cc6 01be 685d b93d 121d bdbd 7bb0 853d
000003f0: 7edf 013e cf78 0bbe 62f8 73bd 46a1 643d

fc2.bias f4 [16]
0.15803681 0.18878165 0.016254012 0.059197865 0.0635857 0.17668347 -0.118774034 0.12628178
0.025410518 -0.11726025 0.12051293 -0.070312746 0.05392999 -0.14891234 -0.053385954 0.16935006
00000000: 67d4 213e fa4f 413e 2227 853c 7679 723d
00000010: 3839 823d 83ec 343e cd3f f3bd 0350 013e
00000020: b829 d03c 2426 f0bd 7ccf f63d 2100 90bd
00000030: b1e5 5c3d 7a7c 18be 3bab 5abd 1a6a 2d3e

fc3.weight f4 [2, 16]
-0.33426484 0.008359993 -0.11713339 -0.053981904 -0.30050603 0.15860516 0.006418155 -0.095604286
-0.22729592 0.31429574 0.13294803 0.17789742 -0.0106802415 -0.075445816 0.096855834 0.19325571
0.24258234 -0.2249287 0.1655525 0.3364343 0.15661788 -0.058853395 -0.21281347 0.061091233
-0.17732151 -0.21073309 -0.21026558 -0.33065072 0.0061334018 0.2467121 -0.29870638 -0.1233625
00000000: c324 abbe 5af8 083c a1e3 efbd 211c 5dbd
00000010: eddb 99be 6469 223e 634f d23b 2ecc c3bd
00000020: 43c0 68be 5feb a03e 8723 083e be2a 363e
00000030: 2efc 2ebc 5683 9abd 5a5c c63d d3e4 453e
00000040: 8167 783e b653 66be 9886 293e 1e41 ac3e
00000050: 7060 203e 4210 71bd c6eb 59be cd3a 7a3d
00000060: c593 35be 6aca 57be dc4f 57be 0d4b a9be
00000070: b4fa c83b 19a2 7c3e 0bf0 98be 7aa5 fcbd

fc3.bias f4 [2]
0.0036702608 -0.026064066
00000000: c288 703b 4f84 d5bc
